…
, {"neurons": 8, "activation": "sigmoid", "rate": null, "layer_type": "dense"}, {"neurons": null, "activation": null, "rate": 0.4, "layer_type": "dropout"}, {"neurons": 8, "activation": "relu", "rate": null, "layer_type": "dense"}], "optimizer": "rmsprop", "loss": 1.7056055068969727, "accuracy": 0.6626499891281128, "specie": "I 0", "ml_model": "Model: \"sequential\"\n_________________________________________________________________\nLayer (type)                 Output Shape              Param #   \n=================================================================\ndense (Dense)                (None, 256)               200960    \n_________________________________________________________________\ndense_1 (Dense)              (None, 512)               131584    \n_________________________________________________________________\ndense_2 (Dense)              (None, 8)                 4104      \n_________________________________________________________________\ndropout (Dropout)            (None, 8)                 0         \n_________________________________________________________________\ndense_3 (Dense)              (None, 8)                 72        \n_________________________________________________________________\ndense_4 (Dense)              (None, 10)                90        \n=================================================================\nTotal params: 336,810\nTrainable params: 336,810\nNon-trainable params: 0\n_________________________________________________________________\n"}