…
}, {"neurons": 16, "activation": "relu", "rate": null, "layer_type": "dense"}, {"neurons": null, "activation": null, "rate": 0.2, "layer_type": "dropout"}, {"neurons": 16, "activation": "relu", "rate": null, "layer_type": "dense"}], "optimizer": "rmsprop", "loss": 1.1581425666809082, "accuracy": 0.7390499711036682, "specie": "I 0", "ml_model": "Model: \"sequential\"\n_________________________________________________________________\nLayer (type)                 Output Shape              Param #   \n=================================================================\ndense (Dense)                (None, 512)               401920    \n_________________________________________________________________\ndense_1 (Dense)              (None, 8)                 4104      \n_________________________________________________________________\ndense_2 (Dense)              (None, 16)                144       \n_________________________________________________________________\ndropout (Dropout)            (None, 16)                0         \n_________________________________________________________________\ndense_3 (Dense)              (None, 16)                272       \n_________________________________________________________________\ndense_4 (Dense)              (None, 10)                170       \n=================================================================\nTotal params: 406,610\nTrainable params: 406,610\nNon-trainable params: 0\n_________________________________________________________________\n"}