…
t"}, {"neurons": null, "activation": null, "rate": 0.4, "layer_type": "dropout"}, {"neurons": 64, "activation": "relu", "rate": null, "layer_type": "dense"}, {"neurons": 512, "activation": "tanh", "rate": null, "layer_type": "dense"}], "optimizer": "sgd", "loss": 2.2930967807769775, "accuracy": 0.15889999270439148, "specie": "I 0", "ml_model": "Model: \"sequential\"\n_________________________________________________________________\nLayer (type)                 Output Shape              Param #   \n=================================================================\ndense (Dense)                (None, 24)                18840     \n_________________________________________________________________\ndropout (Dropout)            (None, 24)                0         \n_________________________________________________________________\ndropout_1 (Dropout)          (None, 24)                0         \n_________________________________________________________________\ndropout_2 (Dropout)          (None, 24)                0         \n_________________________________________________________________\ndense_1 (Dense)              (None, 64)                1600      \n_________________________________________________________________\ndense_2 (Dense)              (None, 512)               33280     \n_________________________________________________________________\ndense_3 (Dense)              (None, 10)                5130      \n=================================================================\nTotal params: 58,850\nTrainable params: 58,850\nNon-trainable params: 0\n_________________________________________________________________\n"}