…
, {"neurons": 8, "activation": "sigmoid", "rate": null, "layer_type": "dense"}, {"neurons": null, "activation": null, "rate": 0.9, "layer_type": "dropout"}, {"neurons": null, "activation": null, "rate": 0.7, "layer_type": "dropout"}], "optimizer": "rmsprop", "loss": 2.30749773979187, "accuracy": 0.1018500030040741, "specie": "I 0", "ml_model": "Model: \"sequential\"\n_________________________________________________________________\nLayer (type)                 Output Shape              Param #   \n=================================================================\ndropout (Dropout)            (None, 784)               0         \n_________________________________________________________________\ndense (Dense)                (None, 32)                25120     \n_________________________________________________________________\ndropout_1 (Dropout)          (None, 32)                0         \n_________________________________________________________________\ndropout_2 (Dropout)          (None, 32)                0         \n_________________________________________________________________\ndropout_3 (Dropout)          (None, 32)                0         \n_________________________________________________________________\ndense_1 (Dense)              (None, 8)                 264       \n_________________________________________________________________\ndropout_4 (Dropout)          (None, 8)                 0         \n_________________________________________________________________\ndropout_5 (Dropout)          (None, 8)                 0         \n_________________________________________________________________\ndense_2 (Dense)              (None, 10)                90        \n=================================================================\nTotal params: 25,474\nTrainable params: 25,474\nNon-trainable params: 0\n_________________________________________________________________\n"}