…
"neurons": 24, "activation": "tanh", "rate": null, "layer_type": "dense"}, {"neurons": 512, "activation": "sigmoid", "rate": null, "layer_type": "dense"}, {"neurons": 256, "activation": "relu", "rate": null, "layer_type": "dense"}], "optimizer": "rmsprop", "loss": 0.8800454139709473, "accuracy": 0.6829500198364258, "specie": "I 0", "ml_model": "Model: \"sequential\"\n_________________________________________________________________\nLayer (type)                 Output Shape              Param #   \n=================================================================\ndense (Dense)                (None, 512)               401920    \n_________________________________________________________________\ndropout (Dropout)            (None, 512)               0         \n_________________________________________________________________\ndense_1 (Dense)              (None, 128)               65664     \n_________________________________________________________________\ndropout_1 (Dropout)          (None, 128)               0         \n_________________________________________________________________\ndense_2 (Dense)              (None, 64)                8256      \n_________________________________________________________________\ndense_3 (Dense)              (None, 24)                1560      \n_________________________________________________________________\ndense_4 (Dense)              (None, 512)               12800     \n_________________________________________________________________\ndense_5 (Dense)              (None, 256)               131328    \n_________________________________________________________________\ndense_6 (Dense)              (None, 10)                2570      \n=================================================================\nTotal params: 624,098\nTrainable params: 624,098\nNon-trainable params: 0\n_________________________________________________________________\n"}