…
}, {"neurons": 128, "activation": "sigmoid", "rate": null, "layer_type": "dense"}, {"neurons": null, "activation": null, "rate": 0.5, "layer_type": "dropout"}, {"neurons": 16, "activation": "relu", "rate": null, "layer_type": "dense"}], "optimizer": "sgd", "loss": 2.303518533706665, "accuracy": 0.06830000132322311, "specie": "I 0", "ml_model": "Model: \"sequential\"\n_________________________________________________________________\nLayer (type)                 Output Shape              Param #   \n=================================================================\ndropout (Dropout)            (None, 784)               0         \n_________________________________________________________________\ndense (Dense)                (None, 64)                50240     \n_________________________________________________________________\ndropout_1 (Dropout)          (None, 64)                0         \n_________________________________________________________________\ndense_1 (Dense)              (None, 32)                2080      \n_________________________________________________________________\ndense_2 (Dense)              (None, 128)               4224      \n_________________________________________________________________\ndropout_2 (Dropout)          (None, 128)               0         \n_________________________________________________________________\ndense_3 (Dense)              (None, 16)                2064      \n_________________________________________________________________\ndense_4 (Dense)              (None, 10)                170       \n=================================================================\nTotal params: 58,778\nTrainable params: 58,778\nNon-trainable params: 0\n_________________________________________________________________\n"}