…
{"neurons": 32, "activation": "tanh", "rate": null, "layer_type": "dense"}, {"neurons": 256, "activation": "tanh", "rate": null, "layer_type": "dense"}, {"neurons": 8, "activation": "sigmoid", "rate": null, "layer_type": "dense"}], "optimizer": "rmsprop", "loss": 1.7893506288528442, "accuracy": 0.38694998621940613, "specie": "I 0", "ml_model": "Model: \"sequential\"\n_________________________________________________________________\nLayer (type)                 Output Shape              Param #   \n=================================================================\ndense (Dense)                (None, 24)                18840     \n_________________________________________________________________\ndropout (Dropout)            (None, 24)                0         \n_________________________________________________________________\ndropout_1 (Dropout)          (None, 24)                0         \n_________________________________________________________________\ndense_1 (Dense)              (None, 32)                800       \n_________________________________________________________________\ndense_2 (Dense)              (None, 256)               8448      \n_________________________________________________________________\ndense_3 (Dense)              (None, 8)                 2056      \n_________________________________________________________________\ndense_4 (Dense)              (None, 10)                90        \n=================================================================\nTotal params: 30,234\nTrainable params: 30,234\nNon-trainable params: 0\n_________________________________________________________________\n"}