…
t": [{"neurons": 32, "activation": "relu", "rate": null, "layer_type": "dense"},  {"neurons": null, "activation": null, "rate": 0.2, "layer_type": "dropout"}, {"neurons": 128, "activation": "relu", "rate": null, "layer_type": "dense"}], "optimizer": "sgd", "loss": 2.329874038696289, "accuracy": 0.09664999693632126, "specie": "I 0", "ml_model": "Model: \"sequential\"\n_________________________________________________________________\nLayer (type)                 Output Shape              Param #   \n=================================================================\ndense (Dense)                (None, 32)                25120     \n_________________________________________________________________\ndropout (Dropout)            (None, 32)                0         \n_________________________________________________________________\ndropout_1 (Dropout)          (None, 32)                0         \n_________________________________________________________________\ndropout_2 (Dropout)          (None, 32)                0         \n_________________________________________________________________\ndropout_3 (Dropout)          (None, 32)                0         \n_________________________________________________________________\ndropout_4 (Dropout)          (None, 32)                0         \n_________________________________________________________________\ndense_1 (Dense)              (None, 128)               4224      \n_________________________________________________________________\ndense_2 (Dense)              (None, 16)                2064      \n_________________________________________________________________\ndense_3 (Dense)              (None, 10)                170       \n=================================================================\nTotal params: 31,578\nTrainable params: 31,578\nNon-trainable params: 0\n_________________________________________________________________\n"}