…
t"}, {"neurons": null, "activation": null, "rate": 0.4, "layer_type": "dropout"}, {"neurons": null, "activation": null, "rate": 0.6, "layer_type": "dropout"}, {"neurons": 32, "activation": "tanh", "rate": null, "layer_type": "dense"}], "optimizer": "adam", "loss": 0.5591056942939758, "accuracy": 0.8631500005722046, "specie": "I 0", "ml_model": "Model: \"sequential\"\n_________________________________________________________________\nLayer (type)                 Output Shape              Param #   \n=================================================================\ndropout (Dropout)            (None, 784)               0         \n_________________________________________________________________\ndropout_1 (Dropout)          (None, 784)               0         \n_________________________________________________________________\ndropout_2 (Dropout)          (None, 784)               0         \n_________________________________________________________________\ndropout_3 (Dropout)          (None, 784)               0         \n_________________________________________________________________\ndense (Dense)                (None, 32)                25120     \n_________________________________________________________________\ndense_1 (Dense)              (None, 10)                330       \n=================================================================\nTotal params: 25,450\nTrainable params: 25,450\nNon-trainable params: 0\n_________________________________________________________________\n"}