…
}, {"neurons": 512, "activation": "relu", "rate": null, "layer_type": "dense"}, {"neurons": null, "activation": null, "rate": 0.5, "layer_type": "dropout"}, {"neurons": null, "activation": null, "rate": 0.9, "layer_type": "dropout"}], "optimizer": "rmsprop", "loss": 0.671782910823822, "accuracy": 0.830299973487854, "specie": "I 0", "ml_model": "Model: \"sequential\"\n_________________________________________________________________\nLayer (type)                 Output Shape              Param #   \n=================================================================\ndense (Dense)                (None, 256)               200960    \n_________________________________________________________________\ndense_1 (Dense)              (None, 64)                16448     \n_________________________________________________________________\ndense_2 (Dense)              (None, 64)                4160      \n_________________________________________________________________\ndense_3 (Dense)              (None, 512)               33280     \n_________________________________________________________________\ndropout (Dropout)            (None, 512)               0         \n_________________________________________________________________\ndropout_1 (Dropout)          (None, 512)               0         \n_________________________________________________________________\ndense_4 (Dense)              (None, 10)                5130      \n=================================================================\nTotal params: 259,978\nTrainable params: 259,978\nNon-trainable params: 0\n_________________________________________________________________\n"}