…
rons": 512, "activation": "sigmoid", "rate": null, "layer_type": "dense"}, {"neurons": null, "activation": null, "rate": 0.5, "layer_type": "dropout"}, {"neurons": 128, "activation": "tanh", "rate": null, "layer_type": "dense"}], "optimizer": "rmsprop", "loss": 0.33502277731895447, "accuracy": 0.8992499709129333, "specie": "I 0", "ml_model": "Model: \"sequential_4\"\n_________________________________________________________________\nLayer (type)                 Output Shape              Param #   \n=================================================================\ndropout_6 (Dropout)          (None, 784)               0         \n_________________________________________________________________\ndropout_7 (Dropout)          (None, 784)               0         \n_________________________________________________________________\ndense_13 (Dense)             (None, 256)               200960    \n_________________________________________________________________\ndense_14 (Dense)             (None, 512)               131584    \n_________________________________________________________________\ndropout_8 (Dropout)          (None, 512)               0         \n_________________________________________________________________\ndense_15 (Dense)             (None, 128)               65664     \n_________________________________________________________________\ndense_16 (Dense)             (None, 10)                1290      \n=================================================================\nTotal params: 399,498\nTrainable params: 399,498\nNon-trainable params: 0\n_________________________________________________________________\n"}