…
 0.5, "layer_type": "dropout"}, {"neurons": null, "activation": null, "rate": 0.4, "layer_type": "dropout"}, {"neurons": 512, "activation": "sigmoid", "rate": null, "layer_type": "dense"}, {"neurons": 128, "activation": "tanh", "rate": null, "layer_type": "dense"}], "optimizer": "adam", "loss": 0.2, "accuracy": 0.7, "specie": "", "ml_model": "Model: \"sequential_1\"\n_________________________________________________________________\nLayer (type)                 Output Shape              Param #   \n=================================================================\ndropout_2 (Dropout)          (None, 784)               0         \n_________________________________________________________________\ndropout_3 (Dropout)          (None, 784)               0         \n_________________________________________________________________\ndropout_4 (Dropout)          (None, 784)               0         \n_________________________________________________________________\ndense_5 (Dense)              (None, 512)               401920    \n_________________________________________________________________\ndense_6 (Dense)              (None, 128)               65664     \n_________________________________________________________________\ndense_7 (Dense)              (None, 10)                1290      \n=================================================================\nTotal params: 468,874\nTrainable params: 468,874\nNon-trainable params: 0\n_________________________________________________________________\n"}