…
se"}, {"neurons": 512, "activation": "relu", "rate": null, "layer_type": "dense"}, {"neurons": null, "activation": null, "rate": 0.8, "layer_type": "dropout"}, {"neurons": null, "activation": null, "rate": 0.8, "layer_type": "dropout"}], "optimizer": "adam", "loss": 0.9802287817001343, "accuracy": 0.781000018119812, "specie": "", "ml_model": "Model: \"sequential_5\"\n_________________________________________________________________\nLayer (type)                 Output Shape              Param #   \n=================================================================\ndropout_15 (Dropout)         (None, 784)               0         \n_________________________________________________________________\ndense_16 (Dense)             (None, 64)                50240     \n_________________________________________________________________\ndense_17 (Dense)             (None, 16)                1040      \n_________________________________________________________________\ndense_18 (Dense)             (None, 512)               8704      \n_________________________________________________________________\ndropout_16 (Dropout)         (None, 512)               0         \n_________________________________________________________________\ndropout_17 (Dropout)         (None, 512)               0         \n_________________________________________________________________\ndense_19 (Dense)             (None, 10)                5130      \n=================================================================\nTotal params: 65,114\nTrainable params: 65,114\nNon-trainable params: 0\n_________________________________________________________________\n", "id": "pcmgmpfqjmxp", "parent_a": "yokopyqehgzg", "parent_b": "qxamuabtrbsl"}