…
te": null, "layer_type": "dense"}, {"neurons": 512, "activation": "relu", "rate": null, "layer_type": "dense"}, {"neurons": null, "activation": null, "rate": 0.8, "layer_type": "dropout"}, {"neurons": null, "activation": null, "rate": 0.8, "layer_type": "dropout"}], "optimizer": "adam", "loss": null, "accuracy": null, "specie": "", "ml_model": "Model: \"sequential\"\n_________________________________________________________________\nLayer (type)                 Output Shape              Param #   \n=================================================================\ndropout (Dropout)            (None, 784)               0         \n_________________________________________________________________\ndense (Dense)                (None, 64)                50240     \n_________________________________________________________________\ndense_1 (Dense)              (None, 16)                1040      \n_________________________________________________________________\ndense_2 (Dense)              (None, 512)               8704      \n_________________________________________________________________\ndropout_1 (Dropout)          (None, 512)               0         \n_________________________________________________________________\ndropout_2 (Dropout)          (None, 512)               0         \n_________________________________________________________________\ndense_3 (Dense)              (None, 10)                5130      \n=================================================================\nTotal params: 65,114\nTrainable params: 65,114\nNon-trainable params: 0\n_________________________________________________________________\n", "id": "pcmgmpfqjmxp", "parent_a": "yokopyqehgzg", "parent_b": "qxamuabtrbsl"}