…
t"}, {"neurons": 512, "activation": "relu", "rate": null, "layer_type": "dense"}, {"neurons": null, "activation": null, "rate": 0.4, "layer_type": "dropout"}, {"neurons": 512, "activation": "tanh", "rate": null, "layer_type": "dense"}], "optimizer": "sgd", "loss": 2.1057231426239014, "accuracy": 0.4867999851703644, "specie": "I 0", "ml_model": "Model: \"sequential\"\n_________________________________________________________________\nLayer (type)                 Output Shape              Param #   \n=================================================================\ndense (Dense)                (None, 64)                50240     \n_________________________________________________________________\ndropout (Dropout)            (None, 64)                0         \n_________________________________________________________________\ndense_1 (Dense)              (None, 512)               33280     \n_________________________________________________________________\ndropout_1 (Dropout)          (None, 512)               0         \n_________________________________________________________________\ndense_2 (Dense)              (None, 512)               262656    \n_________________________________________________________________\ndense_3 (Dense)              (None, 10)                5130      \n=================================================================\nTotal params: 351,306\nTrainable params: 351,306\nNon-trainable params: 0\n_________________________________________________________________\n"}