…
nse"}, {"neurons": 8, "activation": "tanh", "rate": null, "layer_type": "dense"}, {"neurons": 256, "activation": "tanh", "rate": null, "layer_type": "dense"}, {"neurons": 64, "activation": "relu", "rate": null, "layer_type": "dense"}], "optimizer": "adam", "loss": 0.8110765218734741, "accuracy": 0.7421500086784363, "specie": "I 0", "ml_model": "Model: \"sequential\"\n_________________________________________________________________\nLayer (type)                 Output Shape              Param #   \n=================================================================\ndropout (Dropout)            (None, 784)               0         \n_________________________________________________________________\ndropout_1 (Dropout)          (None, 784)               0         \n_________________________________________________________________\ndense (Dense)                (None, 16)                12560     \n_________________________________________________________________\ndropout_2 (Dropout)          (None, 16)                0         \n_________________________________________________________________\ndense_1 (Dense)              (None, 256)               4352      \n_________________________________________________________________\ndense_2 (Dense)              (None, 8)                 2056      \n_________________________________________________________________\ndense_3 (Dense)              (None, 256)               2304      \n_________________________________________________________________\ndense_4 (Dense)              (None, 64)                16448     \n_________________________________________________________________\ndense_5 (Dense)              (None, 10)                650       \n=================================================================\nTotal params: 38,370\nTrainable params: 38,370\nNon-trainable params: 0\n_________________________________________________________________\n"}