…
}, {"neurons": null, "activation": null, "rate": 0.7, "layer_type": "dropout"}, {"neurons": 64, "activation": "relu", "rate": null, "layer_type": "dense"}, {"neurons": 24, "activation": "tanh", "rate": null, "layer_type": "dense"}], "optimizer": "rmsprop", "loss": 2.312389850616455, "accuracy": 0.10894999653100967, "specie": "I 0", "ml_model": "Model: \"sequential\"\n_________________________________________________________________\nLayer (type)                 Output Shape              Param #   \n=================================================================\ndropout (Dropout)            (None, 784)               0         \n_________________________________________________________________\ndropout_1 (Dropout)          (None, 784)               0         \n_________________________________________________________________\ndense (Dense)                (None, 512)               401920    \n_________________________________________________________________\ndropout_2 (Dropout)          (None, 512)               0         \n_________________________________________________________________\ndropout_3 (Dropout)          (None, 512)               0         \n_________________________________________________________________\ndense_1 (Dense)              (None, 32)                16416     \n_________________________________________________________________\ndropout_4 (Dropout)          (None, 32)                0         \n_________________________________________________________________\ndense_2 (Dense)              (None, 64)                2112      \n_________________________________________________________________\ndense_3 (Dense)              (None, 24)                1560      \n_________________________________________________________________\ndense_4 (Dense)              (None, 10)                250       \n=================================================================\nTotal params: 422,258\nTrainable params: 422,258\nNon-trainable params: 0\n_________________________________________________________________\n", "id": "hzhrcsborghq", "parent_a": null, "parent_b": null}