…
"}, {"neurons": null, "activation": null, "rate": 0.9, "layer_type": "dropout"}, {"neurons": null, "activation": null, "rate": 0.6, "layer_type": "dropout"}, {"neurons": null, "activation": null, "rate": 0.4, "layer_type": "dropout"}], "optimizer": "sgd", "loss": 2.3053834438323975, "accuracy": 0.10894999653100967, "specie": "I 0", "ml_model": "Model: \"sequential\"\n_________________________________________________________________\nLayer (type)                 Output Shape              Param #   \n=================================================================\ndense (Dense)                (None, 8)                 6280      \n_________________________________________________________________\ndropout (Dropout)            (None, 8)                 0         \n_________________________________________________________________\ndense_1 (Dense)              (None, 512)               4608      \n_________________________________________________________________\ndense_2 (Dense)              (None, 64)                32832     \n_________________________________________________________________\ndropout_1 (Dropout)          (None, 64)                0         \n_________________________________________________________________\ndense_3 (Dense)              (None, 256)               16640     \n_________________________________________________________________\ndropout_2 (Dropout)          (None, 256)               0         \n_________________________________________________________________\ndropout_3 (Dropout)          (None, 256)               0         \n_________________________________________________________________\ndropout_4 (Dropout)          (None, 256)               0         \n_________________________________________________________________\ndropout_5 (Dropout)          (None, 256)               0         \n_________________________________________________________________\ndense_4 (Dense)              (None, 10)                2570      \n=================================================================\nTotal params: 62,930\nTrainable params: 62,930\nNon-trainable params: 0\n_________________________________________________________________\n"}