…
}, {"neurons": null, "activation": null, "rate": 0.8, "layer_type": "dropout"}, {"neurons": null, "activation": null, "rate": 0.8, "layer_type": "dropout"}, {"neurons": 64, "activation": "relu", "rate": null, "layer_type": "dense"}], "optimizer": "adam", "loss": 1.4887498617172241, "accuracy": 0.4657999873161316, "specie": "I 0", "ml_model": "Model: \"sequential_9\"\n_________________________________________________________________\nLayer (type)                 Output Shape              Param #   \n=================================================================\ndense_40 (Dense)             (None, 512)               401920    \n_________________________________________________________________\ndense_41 (Dense)             (None, 8)                 4104      \n_________________________________________________________________\ndropout_27 (Dropout)         (None, 8)                 0         \n_________________________________________________________________\ndense_42 (Dense)             (None, 16)                144       \n_________________________________________________________________\ndense_43 (Dense)             (None, 512)               8704      \n_________________________________________________________________\ndropout_28 (Dropout)         (None, 512)               0         \n_________________________________________________________________\ndropout_29 (Dropout)         (None, 512)               0         \n_________________________________________________________________\ndense_44 (Dense)             (None, 64)                32832     \n_________________________________________________________________\ndense_45 (Dense)             (None, 10)                650       \n=================================================================\nTotal params: 448,354\nTrainable params: 448,354\nNon-trainable params: 0\n_________________________________________________________________\n", "id": "qxamuabtrbsl", "parent_a": null, "parent_b": null}