…
t"}, {"neurons": 16, "activation": "sigmoid", "rate": null, "layer_type": "dense"}, {"neurons": 16, "activation": "tanh", "rate": null, "layer_type": "dense"}, {"neurons": null, "activation": null, "rate": 0.7, "layer_type": "dropout"}], "optimizer": "adam", "loss": 2.2236645221710205, "accuracy": 0.21044999361038208, "specie": "", "ml_model": "Model: \"sequential\"\n_________________________________________________________________\nLayer (type)                 Output Shape              Param #   \n=================================================================\ndropout (Dropout)            (None, 784)               0         \n_________________________________________________________________\ndense (Dense)                (None, 8)                 6280      \n_________________________________________________________________\ndropout_1 (Dropout)          (None, 8)                 0         \n_________________________________________________________________\ndense_1 (Dense)              (None, 16)                144       \n_________________________________________________________________\ndense_2 (Dense)              (None, 16)                272       \n_________________________________________________________________\ndropout_2 (Dropout)          (None, 16)                0         \n_________________________________________________________________\ndense_3 (Dense)              (None, 10)                170       \n=================================================================\nTotal params: 6,866\nTrainable params: 6,866\nNon-trainable params: 0\n_________________________________________________________________\n", "id": "lwubbfidqmwe", "parent_a": "yokopyqehgzg", "parent_b": "qxamuabtrbsl"}