…
se"}, {"neurons": null, "activation": null, "rate": 0.4, "layer_type": "dropout"}, {"neurons": null, "activation": null, "rate": 0.9, "layer_type": "dropout"}, {"neurons": 128, "activation": "relu", "rate": null, "layer_type": "dense"}], "optimizer": "adam", "loss": 1.471826434135437, "accuracy": 0.383899986743927, "specie": "I 0", "ml_model": "Model: \"sequential\"\n_________________________________________________________________\nLayer (type)                 Output Shape              Param #   \n=================================================================\ndense (Dense)                (None, 32)                25120     \n_________________________________________________________________\ndropout (Dropout)            (None, 32)                0         \n_________________________________________________________________\ndense_1 (Dense)              (None, 128)               4224      \n_________________________________________________________________\ndropout_1 (Dropout)          (None, 128)               0         \n_________________________________________________________________\ndense_2 (Dense)              (None, 128)               16512     \n_________________________________________________________________\ndense_3 (Dense)              (None, 24)                3096      \n_________________________________________________________________\ndense_4 (Dense)              (None, 128)               3200      \n_________________________________________________________________\ndropout_2 (Dropout)          (None, 128)               0         \n_________________________________________________________________\ndropout_3 (Dropout)          (None, 128)               0         \n_________________________________________________________________\ndense_5 (Dense)              (None, 128)               16512     \n_________________________________________________________________\ndense_6 (Dense)              (None, 10)                1290      \n=================================================================\nTotal params: 69,954\nTrainable params: 69,954\nNon-trainable params: 0\n_________________________________________________________________\n"}