…
e": null, "layer_type": "dense"}, {"neurons": 512, "activation": "sigmoid", "rate": null, "layer_type": "dense"}, {"neurons": null, "activation": null, "rate": 0.5, "layer_type": "dropout"}, {"neurons": 128, "activation": "tanh", "rate": null, "layer_type": "dense"}], "optimizer": "adam", "loss": 0.1, "accuracy": 0.8, "specie": "", "ml_model": "Model: \"sequential\"\n_________________________________________________________________\nLayer (type)                 Output Shape              Param #   \n=================================================================\ndropout (Dropout)            (None, 784)               0         \n_________________________________________________________________\ndense (Dense)                (None, 64)                50240     \n_________________________________________________________________\ndense_1 (Dense)              (None, 256)               16640     \n_________________________________________________________________\ndense_2 (Dense)              (None, 512)               131584    \n_________________________________________________________________\ndropout_1 (Dropout)          (None, 512)               0         \n_________________________________________________________________\ndense_3 (Dense)              (None, 128)               65664     \n_________________________________________________________________\ndense_4 (Dense)              (None, 10)                1290      \n=================================================================\nTotal params: 265,418\nTrainable params: 265,418\nNon-trainable params: 0\n_________________________________________________________________\n"}