…
"}, {"neurons": null, "activation": null, "rate": 0.6, "layer_type": "dropout"}, {"neurons": 256, "activation": "tanh", "rate": null, "layer_type": "dense"}, {"neurons": 8, "activation": "tanh", "rate": null, "layer_type": "dense"}], "optimizer": "adam", "loss": 1.0748302936553955, "accuracy": 0.7174999713897705, "specie": "I 0", "ml_model": "Model: \"sequential_6\"\n_________________________________________________________________\nLayer (type)                 Output Shape              Param #   \n=================================================================\ndropout_16 (Dropout)         (None, 784)               0         \n_________________________________________________________________\ndropout_17 (Dropout)         (None, 784)               0         \n_________________________________________________________________\ndense_16 (Dense)             (None, 256)               200960    \n_________________________________________________________________\ndense_17 (Dense)             (None, 8)                 2056      \n_________________________________________________________________\ndense_18 (Dense)             (None, 10)                90        \n=================================================================\nTotal params: 203,106\nTrainable params: 203,106\nNon-trainable params: 0\n_________________________________________________________________\n"}