…
ut"}, {"neurons": null, "activation": null, "rate": 0.6, "layer_type": "dropout"}, {"neurons": 256, "activation": "tanh", "rate": null, "layer_type": "dense"}, {"neurons": 8, "activation": "tanh", "rate": null, "layer_type": "dense"}], "optimizer": "adam", "loss": 1.2479807138442993, "accuracy": 0.6786999702453613, "specie": "I 0", "ml_model": "Model: \"sequential\"\n_________________________________________________________________\nLayer (type)                 Output Shape              Param #   \n=================================================================\ndropout (Dropout)            (None, 784)               0         \n_________________________________________________________________\ndropout_1 (Dropout)          (None, 784)               0         \n_________________________________________________________________\ndense (Dense)                (None, 256)               200960    \n_________________________________________________________________\ndense_1 (Dense)              (None, 8)                 2056      \n_________________________________________________________________\ndense_2 (Dense)              (None, 10)                90        \n=================================================================\nTotal params: 203,106\nTrainable params: 203,106\nNon-trainable params: 0\n_________________________________________________________________\n"}