…
}, {"neurons": null, "activation": null, "rate": 0.5, "layer_type": "dropout"}, {"neurons": null, "activation": null, "rate": 0.4, "layer_type": "dropout"}, {"neurons": 128, "activation": "tanh", "rate": null, "layer_type": "dense"}], "optimizer": "rmsprop", "loss": 0.32927969098091125, "accuracy": 0.8978000283241272, "specie": "", "ml_model": "Model: \"sequential\"\n_________________________________________________________________\nLayer (type)                 Output Shape              Param #   \n=================================================================\ndense (Dense)                (None, 512)               401920    \n_________________________________________________________________\ndropout (Dropout)            (None, 512)               0         \n_________________________________________________________________\ndropout_1 (Dropout)          (None, 512)               0         \n_________________________________________________________________\ndense_1 (Dense)              (None, 128)               65664     \n_________________________________________________________________\ndense_2 (Dense)              (None, 10)                1290      \n=================================================================\nTotal params: 468,874\nTrainable params: 468,874\nNon-trainable params: 0\n_________________________________________________________________\n"}