…
null, "layer_type": "dense"}, {"neurons": null, "activation": null, "rate": 0.5, "layer_type": "dropout"}, {"neurons": null, "activation": null, "rate": 0.4, "layer_type": "dropout"}, {"neurons": 128, "activation": "tanh", "rate": null, "layer_type": "dense"}], "optimizer": "rmsprop", "loss": null, "accuracy": null, "specie": "", "ml_model": "Model: \"sequential_2\"\n_________________________________________________________________\nLayer (type)                 Output Shape              Param #   \n=================================================================\ndense_6 (Dense)              (None, 512)               401920    \n_________________________________________________________________\ndropout_1 (Dropout)          (None, 512)               0         \n_________________________________________________________________\ndropout_2 (Dropout)          (None, 512)               0         \n_________________________________________________________________\ndense_7 (Dense)              (None, 128)               65664     \n_________________________________________________________________\ndense_8 (Dense)              (None, 10)                1290      \n=================================================================\nTotal params: 468,874\nTrainable params: 468,874\nNon-trainable params: 0\n_________________________________________________________________\n"}