…
ut"}, {"neurons": 64, "activation": "relu", "rate": null, "layer_type": "dense"}, {"neurons": null, "activation": null, "rate": 0.9, "layer_type": "dropout"}, {"neurons": null, "activation": null, "rate": 0.7, "layer_type": "dropout"}], "optimizer": "sgd", "loss": 2.302295207977295, "accuracy": 0.10894999653100967, "specie": "I 0", "ml_model": "Model: \"sequential\"\n_________________________________________________________________\nLayer (type)                 Output Shape              Param #   \n=================================================================\ndropout (Dropout)            (None, 784)               0         \n_________________________________________________________________\ndense (Dense)                (None, 128)               100480    \n_________________________________________________________________\ndropout_1 (Dropout)          (None, 128)               0         \n_________________________________________________________________\ndense_1 (Dense)              (None, 64)                8256      \n_________________________________________________________________\ndropout_2 (Dropout)          (None, 64)                0         \n_________________________________________________________________\ndense_2 (Dense)              (None, 64)                4160      \n_________________________________________________________________\ndropout_3 (Dropout)          (None, 64)                0         \n_________________________________________________________________\ndropout_4 (Dropout)          (None, 64)                0         \n_________________________________________________________________\ndense_3 (Dense)              (None, 10)                650       \n=================================================================\nTotal params: 113,546\nTrainable params: 113,546\nNon-trainable params: 0\n_________________________________________________________________\n"}