…
neurons": null, "activation": null, "rate": 0.4, "layer_type": "dropout"}, {"neurons": 128, "activation": "sigmoid", "rate": null, "layer_type": "dense"}, {"neurons": 256, "activation": "tanh", "rate": null, "layer_type": "dense"}], "optimizer": "rmsprop", "loss": 2.278430700302124, "accuracy": 0.10894999653100967, "specie": "I 0", "ml_model": "Model: \"sequential\"\n_________________________________________________________________\nLayer (type)                 Output Shape              Param #   \n=================================================================\ndropout (Dropout)            (None, 784)               0         \n_________________________________________________________________\ndense (Dense)                (None, 16)                12560     \n_________________________________________________________________\ndense_1 (Dense)              (None, 8)                 136       \n_________________________________________________________________\ndropout_1 (Dropout)          (None, 8)                 0         \n_________________________________________________________________\ndropout_2 (Dropout)          (None, 8)                 0         \n_________________________________________________________________\ndense_2 (Dense)              (None, 128)               1152      \n_________________________________________________________________\ndense_3 (Dense)              (None, 256)               33024     \n_________________________________________________________________\ndense_4 (Dense)              (None, 10)                2570      \n=================================================================\nTotal params: 49,442\nTrainable params: 49,442\nNon-trainable params: 0\n_________________________________________________________________\n"}