…
e"}, {"neurons": null, "activation": null, "rate": 0.8, "layer_type": "dropout"}, {"neurons": null, "activation": null, "rate": 0.8, "layer_type": "dropout"}, {"neurons": 64, "activation": "relu", "rate": null, "layer_type": "dense"}], "optimizer": "adam", "loss": 1.4887498617172241, "accuracy": 0.4657999873161316, "specie": "I 0", "ml_model": "Model: \"sequential\"\n_________________________________________________________________\nLayer (type)                 Output Shape              Param #   \n=================================================================\ndense (Dense)                (None, 512)               401920    \n_________________________________________________________________\ndense_1 (Dense)              (None, 8)                 4104      \n_________________________________________________________________\ndropout (Dropout)            (None, 8)                 0         \n_________________________________________________________________\ndense_2 (Dense)              (None, 16)                144       \n_________________________________________________________________\ndense_3 (Dense)              (None, 512)               8704      \n_________________________________________________________________\ndropout_1 (Dropout)          (None, 512)               0         \n_________________________________________________________________\ndropout_2 (Dropout)          (None, 512)               0         \n_________________________________________________________________\ndense_4 (Dense)              (None, 64)                32832     \n_________________________________________________________________\ndense_5 (Dense)              (None, 10)                650       \n=================================================================\nTotal params: 448,354\nTrainable params: 448,354\nNon-trainable params: 0\n_________________________________________________________________\n", "id": "qxamuabtrbsl", "parent_a": null, "parent_b": null}