…
}, {"neurons": 512, "activation": "relu", "rate": null, "layer_type": "dense"}, {"neurons": 64, "activation": "tanh", "rate": null, "layer_type": "dense"}, {"neurons": 24, "activation": "sigmoid", "rate": null, "layer_type": "dense"}], "optimizer": "sgd", "loss": 2.3560397624969482, "accuracy": 0.11540000140666962, "specie": "I 0", "ml_model": "Model: \"sequential\"\n_________________________________________________________________\nLayer (type)                 Output Shape              Param #   \n=================================================================\ndense (Dense)                (None, 8)                 6280      \n_________________________________________________________________\ndense_1 (Dense)              (None, 64)                576       \n_________________________________________________________________\ndropout (Dropout)            (None, 64)                0         \n_________________________________________________________________\ndense_2 (Dense)              (None, 24)                1560      \n_________________________________________________________________\ndropout_1 (Dropout)          (None, 24)                0         \n_________________________________________________________________\ndropout_2 (Dropout)          (None, 24)                0         \n_________________________________________________________________\ndropout_3 (Dropout)          (None, 24)                0         \n_________________________________________________________________\ndense_3 (Dense)              (None, 512)               12800     \n_________________________________________________________________\ndense_4 (Dense)              (None, 64)                32832     \n_________________________________________________________________\ndense_5 (Dense)              (None, 24)                1560      \n_________________________________________________________________\ndense_6 (Dense)              (None, 10)                250       \n=================================================================\nTotal params: 55,858\nTrainable params: 55,858\nNon-trainable params: 0\n_________________________________________________________________\n"}