…
{"neurons": 256, "activation": "sigmoid", "rate": null, "layer_type": "dense"}, {"neurons": 8, "activation": "relu", "rate": null, "layer_type": "dense"}, {"neurons": null, "activation": null, "rate": 0.7, "layer_type": "dropout"}], "optimizer": "adam", "loss": 2.3016481399536133, "accuracy": 0.10894999653100967, "specie": "I 0", "ml_model": "Model: \"sequential_9\"\n_________________________________________________________________\nLayer (type)                 Output Shape              Param #   \n=================================================================\ndense_38 (Dense)             (None, 128)               100480    \n_________________________________________________________________\ndense_39 (Dense)             (None, 256)               33024     \n_________________________________________________________________\ndense_40 (Dense)             (None, 8)                 2056      \n_________________________________________________________________\ndropout_23 (Dropout)         (None, 8)                 0         \n_________________________________________________________________\ndense_41 (Dense)             (None, 10)                90        \n=================================================================\nTotal params: 135,650\nTrainable params: 135,650\nNon-trainable params: 0\n_________________________________________________________________\n"}