…
{"neurons": 24, "activation": "tanh", "rate": null, "layer_type": "dense"}, {"neurons": 24, "activation": "sigmoid", "rate": null, "layer_type": "dense"}, {"neurons": 64, "activation": "sigmoid", "rate": null, "layer_type": "dense"}], "optimizer": "rmsprop", "loss": 2.264832019805908, "accuracy": 0.271699994802475, "specie": "I 0", "ml_model": "Model: \"sequential\"\n_________________________________________________________________\nLayer (type)                 Output Shape              Param #   \n=================================================================\ndense (Dense)                (None, 16)                12560     \n_________________________________________________________________\ndense_1 (Dense)              (None, 32)                544       \n_________________________________________________________________\ndense_2 (Dense)              (None, 16)                528       \n_________________________________________________________________\ndropout (Dropout)            (None, 16)                0         \n_________________________________________________________________\ndropout_1 (Dropout)          (None, 16)                0         \n_________________________________________________________________\ndropout_2 (Dropout)          (None, 16)                0         \n_________________________________________________________________\ndense_3 (Dense)              (None, 24)                408       \n_________________________________________________________________\ndense_4 (Dense)              (None, 24)                600       \n_________________________________________________________________\ndense_5 (Dense)              (None, 64)                1600      \n_________________________________________________________________\ndense_6 (Dense)              (None, 10)                650       \n=================================================================\nTotal params: 16,890\nTrainable params: 16,890\nNon-trainable params: 0\n_________________________________________________________________\n"}