…
 null, "layer_type": "dense"}, {"neurons": 32, "activation": "tanh", "rate": null, "layer_type": "dense"}, {"neurons": null, "activation": null, "rate": 0.2, "layer_type": "dropout"}, {"neurons": 16, "activation": "tanh", "rate": null, "layer_type": "dense"}], "optimizer": "rmsprop", "loss": 100.0, "accuracy": 0.0, "specie": "I 0", "ml_model": "Model: \"sequential\"\n_________________________________________________________________\nLayer (type)                 Output Shape              Param #   \n=================================================================\ndropout (Dropout)            (None, 784)               0         \n_________________________________________________________________\ndropout_1 (Dropout)          (None, 784)               0         \n_________________________________________________________________\ndense (Dense)                (None, 16)                12560     \n_________________________________________________________________\ndense_1 (Dense)              (None, 256)               4352      \n_________________________________________________________________\ndropout_2 (Dropout)          (None, 256)               0         \n_________________________________________________________________\ndense_2 (Dense)              (None, 256)               65792     \n_________________________________________________________________\ndense_3 (Dense)              (None, 32)                8224      \n_________________________________________________________________\ndropout_3 (Dropout)          (None, 32)                0         \n_________________________________________________________________\ndense_4 (Dense)              (None, 16)                528       \n_________________________________________________________________\ndense_5 (Dense)              (None, 10)                170       \n=================================================================\nTotal params: 91,626\nTrainable params: 91,626\nNon-trainable params: 0\n_________________________________________________________________\n"}