…
e": null, "layer_type": "dense"}, {"neurons": null, "activation": null, "rate": 0.8, "layer_type": "dropout"}, {"neurons": null, "activation": null, "rate": 0.8, "layer_type": "dropout"}, {"neurons": null, "activation": null, "rate": 0.7, "layer_type": "dropout"}], "optimizer": "sgd", "loss": null, "accuracy": null, "specie": "", "ml_model": "Model: \"sequential_1\"\n_________________________________________________________________\nLayer (type)                 Output Shape              Param #   \n=================================================================\ndense_4 (Dense)              (None, 512)               401920    \n_________________________________________________________________\ndense_5 (Dense)              (None, 16)                8208      \n_________________________________________________________________\ndropout_3 (Dropout)          (None, 16)                0         \n_________________________________________________________________\ndropout_4 (Dropout)          (None, 16)                0         \n_________________________________________________________________\ndense_6 (Dense)              (None, 512)               8704      \n_________________________________________________________________\ndropout_5 (Dropout)          (None, 512)               0         \n_________________________________________________________________\ndropout_6 (Dropout)          (None, 512)               0         \n_________________________________________________________________\ndropout_7 (Dropout)          (None, 512)               0         \n_________________________________________________________________\ndense_7 (Dense)              (None, 10)                5130      \n=================================================================\nTotal params: 423,962\nTrainable params: 423,962\nNon-trainable params: 0\n_________________________________________________________________\n", "id": "keatggjgphxf", "parent_a": "qxamuabtrbsl", "parent_b": "gujxpoenmqcp"}