…
se"}, {"neurons": 64, "activation": "relu", "rate": null, "layer_type": "dense"}, {"neurons": null, "activation": null, "rate": 0.6, "layer_type": "dropout"}, {"neurons": 256, "activation": "tanh", "rate": null, "layer_type": "dense"}], "optimizer": "sgd", "loss": 2.388584852218628, "accuracy": 0.09714999794960022, "specie": "I 0", "ml_model": "Model: \"sequential\"\n_________________________________________________________________\nLayer (type)                 Output Shape              Param #   \n=================================================================\ndropout (Dropout)            (None, 784)               0         \n_________________________________________________________________\ndense (Dense)                (None, 512)               401920    \n_________________________________________________________________\ndropout_1 (Dropout)          (None, 512)               0         \n_________________________________________________________________\ndense_1 (Dense)              (None, 128)               65664     \n_________________________________________________________________\ndense_2 (Dense)              (None, 512)               66048     \n_________________________________________________________________\ndense_3 (Dense)              (None, 64)                32832     \n_________________________________________________________________\ndropout_2 (Dropout)          (None, 64)                0         \n_________________________________________________________________\ndense_4 (Dense)              (None, 256)               16640     \n_________________________________________________________________\ndense_5 (Dense)              (None, 10)                2570      \n=================================================================\nTotal params: 585,674\nTrainable params: 585,674\nNon-trainable params: 0\n_________________________________________________________________\n"}