…
{"neurons": null, "activation": null, "rate": 0.5, "layer_type": "dropout"}, {"neurons": 16, "activation": "tanh", "rate": null, "layer_type": "dense"}, {"neurons": 128, "activation": "sigmoid", "rate": null, "layer_type": "dense"}], "optimizer": "adam", "loss": 1.1112406253814697, "accuracy": 0.7605999708175659, "specie": "I 0", "ml_model": "Model: \"sequential_5\"\n_________________________________________________________________\nLayer (type)                 Output Shape              Param #   \n=================================================================\ndense_20 (Dense)             (None, 24)                18840     \n_________________________________________________________________\ndropout_19 (Dropout)         (None, 24)                0         \n_________________________________________________________________\ndense_21 (Dense)             (None, 16)                400       \n_________________________________________________________________\ndense_22 (Dense)             (None, 128)               2176      \n_________________________________________________________________\ndense_23 (Dense)             (None, 10)                1290      \n=================================================================\nTotal params: 22,706\nTrainable params: 22,706\nNon-trainable params: 0\n_________________________________________________________________\n"}