…
"layer_layout": [{"neurons": 128, "activation": "relu", "rate": null, "layer_type": "dense"}, {"neurons": 64, "activation": "relu", "rate": null, "layer_type": "dense"}, {"neurons": null, "activation": null, "rate": 0.3, "layer_type": "dropout"}], "optimizer": "rmsprop", "loss": 0.3016750812530518, "accuracy": 0.7, "specie": "I 0", "ml_model": "Model: \"sequential\"\n_________________________________________________________________\nLayer (type)                 Output Shape              Param #   \n=================================================================\ndense (Dense)                (None, 128)               100480    \n_________________________________________________________________\ndense_1 (Dense)              (None, 64)                8256      \n_________________________________________________________________\ndense_2 (Dense)              (None, 8)                 520       \n_________________________________________________________________\ndense_3 (Dense)              (None, 64)                576       \n_________________________________________________________________\ndropout (Dropout)            (None, 64)                0         \n_________________________________________________________________\ndense_4 (Dense)              (None, 512)               33280     \n_________________________________________________________________\ndense_5 (Dense)              (None, 24)                12312     \n_________________________________________________________________\ndense_6 (Dense)              (None, 8)                 200       \n_________________________________________________________________\ndense_7 (Dense)              (None, 512)               4608      \n_________________________________________________________________\ndropout_1 (Dropout)          (None, 512)               0         \n_________________________________________________________________\ndense_8 (Dense)              (None, 10)                5130      \n=================================================================\nTotal params: 165,362\nTrainable params: 165,362\nNon-trainable params: 0\n_________________________________________________________________\n"}