…
ense"}, {"neurons": null, "activation": null, "rate": 0.8, "layer_type": "dropout"}, {"neurons": null, "activation": null, "rate": 0.8, "layer_type": "dropout"}, {"neurons": null, "activation": null, "rate": 0.7, "layer_type": "dropout"}], "optimizer": "sgd", "loss": 2.301990032196045, "accuracy": 0.13179999589920044, "specie": "", "ml_model": "Model: \"sequential\"\n_________________________________________________________________\nLayer (type)                 Output Shape              Param #   \n=================================================================\ndense (Dense)                (None, 512)               401920    \n_________________________________________________________________\ndense_1 (Dense)              (None, 16)                8208      \n_________________________________________________________________\ndropout (Dropout)            (None, 16)                0         \n_________________________________________________________________\ndropout_1 (Dropout)          (None, 16)                0         \n_________________________________________________________________\ndense_2 (Dense)              (None, 512)               8704      \n_________________________________________________________________\ndropout_2 (Dropout)          (None, 512)               0         \n_________________________________________________________________\ndropout_3 (Dropout)          (None, 512)               0         \n_________________________________________________________________\ndropout_4 (Dropout)          (None, 512)               0         \n_________________________________________________________________\ndense_3 (Dense)              (None, 10)                5130      \n=================================================================\nTotal params: 423,962\nTrainable params: 423,962\nNon-trainable params: 0\n_________________________________________________________________\n", "id": "keatggjgphxf", "parent_a": "qxamuabtrbsl", "parent_b": "gujxpoenmqcp"}