…
ense"}, {"neurons": null, "activation": null, "rate": 0.9, "layer_type": "dropout"}, {"neurons": 8, "activation": "relu", "rate": null, "layer_type": "dense"}, {"neurons": 16, "activation": "tanh", "rate": null, "layer_type": "dense"}], "optimizer": "sgd", "loss": 2.301433563232422, "accuracy": 0.11495000123977661, "specie": "I 0", "ml_model": "Model: \"sequential\"\n_________________________________________________________________\nLayer (type)                 Output Shape              Param #   \n=================================================================\ndropout (Dropout)            (None, 784)               0         \n_________________________________________________________________\ndense (Dense)                (None, 24)                18840     \n_________________________________________________________________\ndense_1 (Dense)              (None, 256)               6400      \n_________________________________________________________________\ndense_2 (Dense)              (None, 32)                8224      \n_________________________________________________________________\ndropout_1 (Dropout)          (None, 32)                0         \n_________________________________________________________________\ndense_3 (Dense)              (None, 8)                 264       \n_________________________________________________________________\ndense_4 (Dense)              (None, 16)                144       \n_________________________________________________________________\ndense_5 (Dense)              (None, 10)                170       \n=================================================================\nTotal params: 34,042\nTrainable params: 34,042\nNon-trainable params: 0\n_________________________________________________________________\n", "id": "lpkvgntkavha", "parent_a": null, "parent_b": null}