…
, {"neurons": 256, "activation": "sigmoid", "rate": null, "layer_type": "dense"}, {"neurons": 8, "activation": "relu", "rate": null, "layer_type": "dense"}, {"neurons": null, "activation": null, "rate": 0.7, "layer_type": "dropout"}], "optimizer": "adam", "loss": 2.052065134048462, "accuracy": 0.3609499931335449, "specie": "I 0", "ml_model": "Model: \"sequential_8\"\n_________________________________________________________________\nLayer (type)                 Output Shape              Param #   \n=================================================================\ndense_34 (Dense)             (None, 128)               100480    \n_________________________________________________________________\ndense_35 (Dense)             (None, 256)               33024     \n_________________________________________________________________\ndense_36 (Dense)             (None, 8)                 2056      \n_________________________________________________________________\ndropout_22 (Dropout)         (None, 8)                 0         \n_________________________________________________________________\ndense_37 (Dense)             (None, 10)                90        \n=================================================================\nTotal params: 135,650\nTrainable params: 135,650\nNon-trainable params: 0\n_________________________________________________________________\n"}