…
{"neurons": null, "activation": null, "rate": 0.5, "layer_type": "dropout"}, {"neurons": 16, "activation": "tanh", "rate": null, "layer_type": "dense"}, {"neurons": 128, "activation": "sigmoid", "rate": null, "layer_type": "dense"}], "optimizer": "adam", "loss": 1.3384788036346436, "accuracy": 0.6126999855041504, "specie": "I 0", "ml_model": "Model: \"sequential_4\"\n_________________________________________________________________\nLayer (type)                 Output Shape              Param #   \n=================================================================\ndense_16 (Dense)             (None, 24)                18840     \n_________________________________________________________________\ndropout_18 (Dropout)         (None, 24)                0         \n_________________________________________________________________\ndense_17 (Dense)             (None, 16)                400       \n_________________________________________________________________\ndense_18 (Dense)             (None, 128)               2176      \n_________________________________________________________________\ndense_19 (Dense)             (None, 10)                1290      \n=================================================================\nTotal params: 22,706\nTrainable params: 22,706\nNon-trainable params: 0\n_________________________________________________________________\n"}