…
ut"}, {"neurons": null, "activation": null, "rate": 0.5, "layer_type": "dropout"}, {"neurons": null, "activation": null, "rate": 0.2, "layer_type": "dropout"}, {"neurons": 24, "activation": "relu", "rate": null, "layer_type": "dense"}], "optimizer": "adam", "loss": 2.052732229232788, "accuracy": 0.5727999806404114, "specie": "I 0", "ml_model": "Model: \"sequential\"\n_________________________________________________________________\nLayer (type)                 Output Shape              Param #   \n=================================================================\ndense (Dense)                (None, 24)                18840     \n_________________________________________________________________\ndropout (Dropout)            (None, 24)                0         \n_________________________________________________________________\ndropout_1 (Dropout)          (None, 24)                0         \n_________________________________________________________________\ndropout_2 (Dropout)          (None, 24)                0         \n_________________________________________________________________\ndropout_3 (Dropout)          (None, 24)                0         \n_________________________________________________________________\ndense_1 (Dense)              (None, 24)                600       \n_________________________________________________________________\ndense_2 (Dense)              (None, 10)                250       \n=================================================================\nTotal params: 19,690\nTrainable params: 19,690\nNon-trainable params: 0\n_________________________________________________________________\n"}