…
se"}, {"neurons": null, "activation": null, "rate": 0.6, "layer_type": "dropout"}, {"neurons": 32, "activation": "relu", "rate": null, "layer_type": "dense"}, {"neurons": null, "activation": null, "rate": 0.2, "layer_type": "dropout"}], "optimizer": "sgd", "loss": 2.2535109519958496, "accuracy": 0.3158000111579895, "specie": "I 0", "ml_model": "Model: \"sequential\"\n_________________________________________________________________\nLayer (type)                 Output Shape              Param #   \n=================================================================\ndense (Dense)                (None, 128)               100480    \n_________________________________________________________________\ndense_1 (Dense)              (None, 512)               66048     \n_________________________________________________________________\ndense_2 (Dense)              (None, 8)                 4104      \n_________________________________________________________________\ndropout (Dropout)            (None, 8)                 0         \n_________________________________________________________________\ndense_3 (Dense)              (None, 32)                288       \n_________________________________________________________________\ndropout_1 (Dropout)          (None, 32)                0         \n_________________________________________________________________\ndense_4 (Dense)              (None, 10)                330       \n=================================================================\nTotal params: 171,250\nTrainable params: 171,250\nNon-trainable params: 0\n_________________________________________________________________\n"}