…
"}, {"neurons": null, "activation": null, "rate": 0.1, "layer_type": "dropout"}, {"neurons": 128, "activation": "relu", "rate": null, "layer_type": "dense"}, {"neurons": 128, "activation": "relu", "rate": null, "layer_type": "dense"}], "optimizer": "sgd", "loss": 2.2820186614990234, "accuracy": 0.21854999661445618, "specie": "I 0", "ml_model": "Model: \"sequential\"\n_________________________________________________________________\nLayer (type)                 Output Shape              Param #   \n=================================================================\ndropout (Dropout)            (None, 784)               0         \n_________________________________________________________________\ndropout_1 (Dropout)          (None, 784)               0         \n_________________________________________________________________\ndense (Dense)                (None, 32)                25120     \n_________________________________________________________________\ndropout_2 (Dropout)          (None, 32)                0         \n_________________________________________________________________\ndense_1 (Dense)              (None, 128)               4224      \n_________________________________________________________________\ndense_2 (Dense)              (None, 128)               16512     \n_________________________________________________________________\ndense_3 (Dense)              (None, 10)                1290      \n=================================================================\nTotal params: 47,146\nTrainable params: 47,146\nNon-trainable params: 0\n_________________________________________________________________\n"}