…
, {"neurons": null, "activation": null, "rate": 0.3, "layer_type": "dropout"}, {"neurons": null, "activation": null, "rate": 0.7, "layer_type": "dropout"}, {"neurons": 32, "activation": "sigmoid", "rate": null, "layer_type": "dense"}], "optimizer": "sgd", "loss": 2.350045680999756, "accuracy": 0.1935500055551529, "specie": "I 0", "ml_model": "Model: \"sequential_6\"\n_________________________________________________________________\nLayer (type)                 Output Shape              Param #   \n=================================================================\ndense_26 (Dense)             (None, 512)               401920    \n_________________________________________________________________\ndense_27 (Dense)             (None, 16)                8208      \n_________________________________________________________________\ndropout_16 (Dropout)         (None, 16)                0         \n_________________________________________________________________\ndropout_17 (Dropout)         (None, 16)                0         \n_________________________________________________________________\ndense_28 (Dense)             (None, 24)                408       \n_________________________________________________________________\ndropout_18 (Dropout)         (None, 24)                0         \n_________________________________________________________________\ndropout_19 (Dropout)         (None, 24)                0         \n_________________________________________________________________\ndropout_20 (Dropout)         (None, 24)                0         \n_________________________________________________________________\ndense_29 (Dense)             (None, 32)                800       \n_________________________________________________________________\ndense_30 (Dense)             (None, 10)                330       \n=================================================================\nTotal params: 411,666\nTrainable params: 411,666\nNon-trainable params: 0\n_________________________________________________________________\n", "id": "gujxpoenmqcp", "parent_a": null, "parent_b": null}