…
, {"neurons": null, "activation": null, "rate": 0.3, "layer_type": "dropout"}, {"neurons": null, "activation": null, "rate": 0.7, "layer_type": "dropout"}, {"neurons": 32, "activation": "sigmoid", "rate": null, "layer_type": "dense"}], "optimizer": "sgd", "loss": 2.3421213626861572, "accuracy": 0.09995000064373016, "specie": "I 0", "ml_model": "Model: \"sequential\"\n_________________________________________________________________\nLayer (type)                 Output Shape              Param #   \n=================================================================\ndense (Dense)                (None, 512)               401920    \n_________________________________________________________________\ndense_1 (Dense)              (None, 16)                8208      \n_________________________________________________________________\ndropout (Dropout)            (None, 16)                0         \n_________________________________________________________________\ndropout_1 (Dropout)          (None, 16)                0         \n_________________________________________________________________\ndense_2 (Dense)              (None, 24)                408       \n_________________________________________________________________\ndropout_2 (Dropout)          (None, 24)                0         \n_________________________________________________________________\ndropout_3 (Dropout)          (None, 24)                0         \n_________________________________________________________________\ndropout_4 (Dropout)          (None, 24)                0         \n_________________________________________________________________\ndense_3 (Dense)              (None, 32)                800       \n_________________________________________________________________\ndense_4 (Dense)              (None, 10)                330       \n=================================================================\nTotal params: 411,666\nTrainable params: 411,666\nNon-trainable params: 0\n_________________________________________________________________\n", "id": "gujxpoenmqcp", "parent_a": null, "parent_b": null}