…
se"}, {"neurons": null, "activation": null, "rate": 0.5, "layer_type": "dropout"}, {"neurons": 32, "activation": "relu", "rate": null, "layer_type": "dense"}, {"neurons": 32, "activation": "tanh", "rate": null, "layer_type": "dense"}], "optimizer": "sgd", "loss": 2.2825987339019775, "accuracy": 0.18379999697208405, "specie": "I 0", "ml_model": "Model: \"sequential\"\n_________________________________________________________________\nLayer (type)                 Output Shape              Param #   \n=================================================================\ndropout (Dropout)            (None, 784)               0         \n_________________________________________________________________\ndense (Dense)                (None, 8)                 6280      \n_________________________________________________________________\ndropout_1 (Dropout)          (None, 8)                 0         \n_________________________________________________________________\ndense_1 (Dense)              (None, 32)                288       \n_________________________________________________________________\ndense_2 (Dense)              (None, 32)                1056      \n_________________________________________________________________\ndense_3 (Dense)              (None, 10)                330       \n=================================================================\nTotal params: 7,954\nTrainable params: 7,954\nNon-trainable params: 0\n_________________________________________________________________\n"}