…
ut"}, {"neurons": null, "activation": null, "rate": 0.3, "layer_type": "dropout"}, {"neurons": null, "activation": null, "rate": 0.1, "layer_type": "dropout"}, {"neurons": null, "activation": null, "rate": 0.4, "layer_type": "dropout"}], "optimizer": "sgd", "loss": 1.488548755645752, "accuracy": 0.7418500185012817, "specie": "I 0", "ml_model": "Model: \"sequential\"\n_________________________________________________________________\nLayer (type)                 Output Shape              Param #   \n=================================================================\ndense (Dense)                (None, 512)               401920    \n_________________________________________________________________\ndropout (Dropout)            (None, 512)               0         \n_________________________________________________________________\ndropout_1 (Dropout)          (None, 512)               0         \n_________________________________________________________________\ndropout_2 (Dropout)          (None, 512)               0         \n_________________________________________________________________\ndropout_3 (Dropout)          (None, 512)               0         \n_________________________________________________________________\ndense_1 (Dense)              (None, 10)                5130      \n=================================================================\nTotal params: 407,050\nTrainable params: 407,050\nNon-trainable params: 0\n_________________________________________________________________\n", "id": "xpxpuxbkkybn", "parent_a": null, "parent_b": null}